hw1/model/weight.npy (npy, 1432 bytes, 1 tensors)

array f8 [163, 1]
00000000: a439 9643 8fc2 843f 9a0c 6e69 d53a a5bf
00000010: 003b b316 760f 263f 7d45 bdfd 8659 adbf
00000020: f9c8 0303 043e 89bf ddcf 809a 657d 803f
00000030: 34a6 ec40 70d0 453f 8e9b c05c 7317 98bf
00000040: 3a33 5fc9 1693 b93f dd83 86be 3ea3 a0bf
00000050: 16ce 8742 989a 933f b669 2156 1a13 b03f
00000060: 068d 075a c5b7 8ebf 407e fde7 e01a a13f
00000070: 6945 8917 a39d c23f edc8 f91e 01bf b83f
00000080: c93a 48c8 2b6b c33f 4300 84cb 8684 d53f
00000090: 74e5 aa49 62de bf3f f4ce 3bfd 6ab7 963f
000000a0: 7d5e 8c6b b6c4 b53f 5f07 6d93 3be3 d8bf
000000b0: d17f dcaf 2c81 df3f 5338 d460 4bdd c1bf
000000c0: 49f2 5f23 124a dcbf f101 dd27 46b7 d13f
000000d0: 15fb 56e1 9447 f23f 39c0 d165 d4ca d3bf
000000e0: 57ef 3f49 a1ed c03f dc3d a8bf 3d96 d3bf
000000f0: 9ce4 8158 5037 6abf eea2 af8c 2387 e13f
00000100: 441b bf07 4473 dbbf 9231 950d 8621 b5bf
00000110: 1709 e865 9799 c3bf 1835 18a5 0bc0 d03f
00000120: 4866 7572 d30e 9d3f de98 567f 7f8d 953f
00000130: d9ad 2920 5663 ba3f c065 4e7e b645 a9bf
00000140: d3a8 9848 20db 8ebf 4720 0075 0f51 b8bf
00000150: 997b d37c c9e2 a83f 1047 6ddb 4fb6 b43f
00000160: 5561 0801 9699 c4bf 0f66 8a13 df9b 953f
00000170: ee5b 5b77 6c16 a3bf b5d9 4819 b2f5 94bf
00000180: a4d7 4c85 f9f5 b2bf e3a8 121a 0457 93bf
00000190: 3fcb dd6a e622 86bf f162 0b66 80c7 a7bf
000001a0: 2c72 8330 76b4 b9bf 6c09 017b 247c c33f
000001b0: bc5b 7ffa 2eed 7d3f a89a f780 6f96 9fbf
000001c0: b3ed 70f7 cde0 803f 874f f73b df5a a03f
000001d0: 54d5 d6a1 1dcd 9d3f 8a82 831a 50fc 7d3f
000001e0: 0b70 6006 d0e9 94bf fe03 e129 376c 933f
000001f0: 031e 8f0c 6ad0 bf3f fae3 4244 8bf5 653f
00000200: 8e7a 2fbd 1856 873f ab55 c415 674b 7cbf
00000210: b463 6f9e 4503 97bf d06d ed97 ce2b 723f
00000220: 4caf 3253 6266 a1bf 4253 bbe3 ac3e 96bf
00000230: 434c 9ab7 a4a0 8cbf c8ae 5776 eacf b93f
00000240: 08c3 0d14 8fc9 7b3f ff38 27bb 937a 833f
00000250: 88bc 68f0 aad8 9ebf 9a86 2964 63d0 a43f
00000260: 122a 1e73 3bd7 7abf 739b 60d4 c355 a4bf
00000270: 34c5 27ab cab2 a33f 76c4 b53a c497 5ebf
00000280: a195 300d a6dc a13f 49cd fd13 0344 a2bf
00000290: 7df2 6669 033d 82bf 478d d6b5 5ffe ca3f
000002a0: 504d 5464 e006 cebf f5b9 2d31 7d29 95bf
000002b0: 3a80 251d 3f48 df3f 19da 9025 71b0 e1bf
000002c0: d443 594f a9b5 983f 6b8e 4859 4979 ee3f
000002d0: 0ebf 66ee afe7 a03f c7d4 8926 a9ca 65bf
000002e0: 8a4e abed 79b2 abbf 50df 1517 43ef 853f
000002f0: 6d22 4691 6030 a9bf 6795 6cf0 ad32 a83f
00000300: 6138 727f 0028 923f 92c9 ff66 a3ac a1bf
00000310: 6350 8f01 342a b5bf 5131 40dc 8de3 7cbf
00000320: cecf edc7 fbb3 943f ddea 83b7 83a1 643f
00000330: b4a5 619d ce84 a1bf ef91 eee4 9f45 99bf
00000340: 3fee c8d8 eb0c 973f 0aa0 733e 5810 a7bf
00000350: 7453 994b b03e 8f3f 6e27 0885 e2fa 993f
00000360: 964e 02df e233 d1bf 6c39 5360 03f5 d33f
00000370: e9fe a1c0 bae5 aabf 1768 bfa1 6d7e b1bf
00000380: 5975 2922 58b2 8ebf e37e 69bb e04f b03f
00000390: f82e 04bc 245a bdbf ed4e de61 149b c03f
000003a0: e176 be2e 0d4c c43f a083 aed9 5d8f 85bf
000003b0: ad4d cb8a 7c33 6c3f 6160 a27f 8930 943f
000003c0: 9fc1 f38b 204d b2bf cb94 4c96 f54b b33f
000003d0: 3d9b 4f17 b574 c03f 677e 02c5 5763 b43f
000003e0: 265b 8d91 cd3d b53f ca60 c9b5 24ec d13f
000003f0: 7d86 1d08 6881 3fbf ad58 0cdd d2f0 673f
00000400: ce27 2f78 4fae 45bf 230d 1c45 686e 5d3f
00000410: 24d8 ea25 0c4f 343f 1605 9724 69b3 593f
00000420: 4950 abf8 322a 63bf 7115 d356 59ba 503f
00000430: 8bfd ecdd f634 323f 7843 5b61 a823 60bf
00000440: 0fc9 3f16 e677 4cbf ad4d d901 9076 503f
00000450: bc3d 14cc 02e9 60bf b35a 941d 36d0 423f
00000460: 0d3d 5c4d 17df f73e 3219 f798 ff92 10bf
00000470: ce7a 093c 3e38 63bf 59ba c696 022d 413f
00000480: 9993 5f0c c1a8 bfbf 76bb b3e4 1b19 b4bf
00000490: ffb1 feb1 6399 c43f b6f2 c262 3b60 a53f
000004a0: de94 6241 7610 b3bf e934 3e9d cf23 aabf
000004b0: c887 4e8a f3bf a9bf b7a9 09a1 f346 b4bf
000004c0: e4fb bca3 aebf b3bf 2231 f871 90dc a0bf
000004d0: 751a c103 6013 bc3f ab7d 4138 c5b5 b5bf
000004e0: c317 e541 d690 c2bf 90e6 d34a e38f aabf
000004f0: a8db fb9b ba06 d23f 92c9 3c84 87b1 91bf
00000500: 71bb 8fd7 a8fc c8bf 779b 386b 8f59 bd3f
00000510: 35b3 74a4 190b b63f
0.010136718034826249 -0.041464490051134464 0.00016830746185411 -0.05732366416362831 -0.012325316755298564 0.008051675584375967 0.0006657169450125567 -0.023526957069545378
0.09990065017991592 -0.032495461232663315 0.019144419727991822 0.0627914867667759 -0.014998952684385457 0.03340819198524203 0.14543570183972612 0.0966644955276796
0.15170810012246808 0.3362137782532992 0.12448705957912926 0.022184058862832992 0.08503284574214294 -0.3888691844659799 0.49225918935735274 -0.13956587055185085
-0.442020926042265 0.2768111600198884 1.1424759676298823 -0.3092547411279188 0.1322518928208136 -0.30604499546549646 -0.0032002038242891617 0.5477464435362813
-0.42891026264662835 -0.08254278022395159 -0.15312473750970731 0.2617215263606609 0.02837686906909756 0.02104758467398759 0.1030782536051257 -0.0493599919493124
-0.015066387381996204 -0.09498688322503411 0.04860524796253358 0.0809068594656106 -0.1609370713274624 0.021102414672531874 -0.03728045422547398 -0.02046850470852642
-0.07406577591322488 -0.018886627284396062 -0.010808754097273996 -0.04644395108852518 -0.10040987667475382 0.1522260285001481 0.007306273946560301 -0.030847303625615524
0.008241280664256978 0.03194329840667281 0.029102766993408594 0.007320702461783521 -0.020423174275592298 0.018967496806229882 0.12427389914147828 0.00268056107060177
0.011394685052377864 -0.006907847095381762 -0.022473418994056707 0.004436308866242425 -0.03398425355530196 -0.021723462485925944 -0.013978278020010509 0.10082879437657788
0.006784018420930911 0.009511140965426266 -0.030123396800430885 0.040652376152832306 -0.006552917695339848 -0.03971683471200196 0.0384734472207903 -0.0018672386457548019
0.03488654051788421 -0.03567514056239902 -0.008905436185949295 0.2108878744012179 -0.23458485506908255 -0.02066608059561222 0.4887845787652655 -0.5527883275706841
0.024130483120021598 0.9523054832283838 0.0330176332967068 -0.002660112735891038 -0.054096040975903995 0.010710262434016876 -0.04919721387256435 0.047261653517390916
0.01773072030896861 -0.034520250628605656 -0.0826752189453273 -0.007052950040826581 0.02021783263940318 0.0025184223742348148 -0.03421636267814723 -0.024679659221549185
0.02251022825860915 -0.0450465751872003 0.015256287867637865 0.02537111222230897 -0.2687918832609538 0.3118294182467227 -0.05253394700502929 -0.06833539198797244
-0.014988602201976663 0.06371883941164529 -0.11465673055880277 0.12973265436868733 0.15857090742513605 -0.010527356343858874 0.0034425194229272455 0.01971640435712663
-0.07148936669159987 0.07537779731190423 0.1285616267989215 0.07964085159118782 0.08297428897399736 0.28003804924584286 -0.0004807356818813181 0.0029224508692876267
-0.0006616485628623216 0.0017963426839181027 0.0003098873766406182 0.0015686537538928728 -0.002339458039708507 0.0010209915592878894 0.0002778151228319473 -0.001970127933283935
-0.000868785235523613 0.0010048300095107752 -0.002064233268022268 0.0005741371379908905 2.276558810537532e-05 -6.322560351810084e-05 -0.0023461547391855136 0.0005241644517378171
-0.12366873313983574 -0.07850813230082374 0.16093107405812643 0.04174981670937454 -0.0744699391967347 -0.05105446619482185 -0.05029259742083486 -0.07920763665757745
-0.07714358804240323 -0.032932771599094815 0.10967063991220434 -0.08480484603341291 -0.14504507272266495 -0.051879027256245824 0.28166070206446614 -0.017278783270009486
-0.19521055722676864 0.11464783065512828 0.0861068750861705
