hw1/model/weight.npy (npy, 1432 bytes, 1 tensors)

array f8 [163, 1]
000000 f1 39 96 43 8f c2 84 3f c1 0c 6e 69 d5 3a a5 bf
       0.010136718034826383 -0.041464490051134735
000010 65 41 b3 16 76 0f 26 3f 9e 45 bd fd 86 59 ad bf
       0.00016830746185415437 -0.05732366416362854
000020 b5 c8 03 03 04 3e 89 bf f2 cf 80 9a 65 7d 80 3f
       -0.012325316755298446 0.008051675584376004
000030 0a a5 ec 40 70 d0 45 3f a6 9b c0 5c 73 17 98 bf
       0.0006657169450125244 -0.02352695706954546
000040 51 33 5f c9 16 93 b9 3f c9 83 86 be 3e a3 a0 bf
       0.09990065017991624 -0.03249546123266318
000050 e1 cd 87 42 98 9a 93 3f 86 69 21 56 1a 13 b0 3f
       0.01914441972799164 0.06279148676677523
000060 aa 8c 07 5a c5 b7 8e bf 2f 7e fd e7 e0 1a a1 3f
       -0.014998952684385298 0.03340819198524191
000070 72 45 89 17 a3 9d c2 3f d9 c8 f9 1e 01 bf b8 3f
       0.14543570183972637 0.09666449552767932
000080 bd 3a 48 c8 2b 6b c3 3f 46 00 84 cb 86 84 d5 3f
       0.15170810012246774 0.33621377825329934
000090 77 e5 aa 49 62 de bf 3f a4 ce 3b fd 6a b7 96 3f
       0.1244870595791293 0.022184058862832715
0000a0 80 5e 8c 6b b6 c4 b5 3f 56 07 6d 93 3b e3 d8 bf
       0.08503284574214298 -0.3888691844659794
0000b0 d5 7f dc af 2c 81 df 3f 54 38 d4 60 4b dd c1 bf
       0.49225918935735297 -0.13956587055185088
0000c0 4f f2 5f 23 12 4a dc bf fb 01 dd 27 46 b7 d1 3f
       -0.44202092604226534 0.276811160019889
0000d0 11 fb 56 e1 94 47 f2 3f 4c c0 d1 65 d4 ca d3 bf
       1.1424759676298815 -0.30925474112791984
0000e0 72 ef 3f 49 a1 ed c0 3f dc 3d a8 bf 3d 96 d3 bf
       0.13225189282081434 -0.30604499546549646
0000f0 fc e6 81 58 50 37 6a bf f3 a2 af 8c 23 87 e1 3f
       -0.0032002038242894253 0.5477464435362819
000100 42 1b bf 07 44 73 db bf be 31 95 0d 86 21 b5 bf
       -0.42891026264662824 -0.0825427802239522
000110 1b 09 e8 65 97 99 c3 bf 1f 35 18 a5 0b c0 d0 3f
       -0.15312473750970743 0.2617215263606613
000120 31 66 75 72 d3 0e 9d 3f a6 98 56 7f 7f 8d 95 3f
       0.02837686906909748 0.021047584673987395
000130 d8 ad 29 20 56 63 ba 3f d9 65 4e 7e b6 45 a9 bf
       0.10307825360512568 -0.04935999194931257
000140 fd a8 98 48 20 db 8e bf 3b 20 00 75 0f 51 b8 bf
       -0.015066387381996277 -0.09498688322503394
000150 bf 7b d3 7c c9 e2 a8 3f 1a 47 6d db 4f b6 b4 3f
       0.04860524796253384 0.08090685946561074
000160 4c 61 08 01 96 99 c4 bf 14 66 8a 13 df 9b 95 3f
       -0.16093707132746216 0.02110241467253189
000170 16 5c 5b 77 6c 16 a3 bf e9 d9 48 19 b2 f5 94 bf
       -0.037280454225474255 -0.0204685047085266
000180 98 d7 4c 85 f9 f5 b2 bf f9 a8 12 1a 04 57 93 bf
       -0.07406577591322472 -0.018886627284396138
000190 15 cb dd 6a e6 22 86 bf d2 62 0b 66 80 c7 a7 bf
       -0.010808754097273924 -0.04644395108852496
0001a0 2b 72 83 30 76 b4 b9 bf 76 09 01 7b 24 7c c3 3f
       -0.1004098766747538 0.15222602850014838
0001b0 f4 5b 7f fa 2e ed 7d 3f 5f 9a f7 80 6f 96 9f bf
       0.0073062739465603495 -0.03084730362561527
0001c0 eb ed 70 f7 cd e0 80 3f 8c 4f f7 3b df 5a a0 3f
       0.008241280664257075 0.03194329840667284
0001d0 53 d5 d6 a1 1d cd 9d 3f 87 82 83 1a 50 fc 7d 3f
       0.02910276699340859 0.007320702461783519
0001e0 4a 70 60 06 d0 e9 94 bf bf 03 e1 29 37 6c 93 3f
       -0.020423174275592516 0.018967496806229663
0001f0 fb 1d 8f 0c 6a d0 bf 3f e1 e3 42 44 8b f5 65 3f
       0.12427389914147817 0.002680561070601759
000200 a4 7a 2f bd 18 56 87 3f ce 55 c4 15 67 4b 7c bf
       0.011394685052377902 -0.006907847095381793
000210 b0 63 6f 9e 45 03 97 bf 8f 6d ed 97 ce 2b 72 3f
       -0.022473418994056693 0.0044363088662423686
000220 3e af 32 53 62 66 a1 bf 40 53 bb e3 ac 3e 96 bf
       -0.033984253555301866 -0.021723462485925937
000230 8a 4c 9a b7 a4 a0 8c bf ce ae 57 76 ea cf b9 3f
       -0.013978278020010632 0.10082879437657796
000240 0f c3 0d 14 8f c9 7b 3f 00 39 27 bb 93 7a 83 3f
       0.006784018420930917 0.009511140965426268
000250 7e bc 68 f0 aa d8 9e bf 91 86 29 64 63 d0 a4 3f
       -0.03012339680043085 0.040652376152832244
000260 1a 2a 1e 73 3b d7 7a bf 62 9b 60 d4 c3 55 a4 bf
       -0.006552917695339855 -0.03971683471200184
000270 2d c5 27 ab ca b2 a3 3f 13 c4 b5 3a c4 97 5e bf
       0.03847344722079025 -0.0018672386457547804
000280 a3 95 30 0d a6 dc a1 3f 49 cd fd 13 03 44 a2 bf
       0.03488654051788422 -0.03567514056239902
000290 7a f2 66 69 03 3d 82 bf 46 8d d6 b5 5f fe ca 3f
       -0.00890543618594929 0.21088787440121787
0002a0 4e 4d 54 64 e0 06 ce bf e3 b9 2d 31 7d 29 95 bf
       -0.2345848550690825 -0.020666080595612157
0002b0 39 80 25 1d 3f 48 df 3f 1a da 90 25 71 b0 e1 bf
       0.48878457876526543 -0.5527883275706842
0002c0 ea 43 59 4f a9 b5 98 3f 6a 8e 48 59 49 79 ee 3f
       0.024130483120021674 0.9523054832283837
0002d0 0c bf 66 ee af e7 a0 3f c9 d4 89 26 a9 ca 65 bf
       0.03301763329670679 -0.0026601127358910387
0002e0 84 4e ab ed 79 b2 ab bf 48 df 15 17 43 ef 85 3f
       -0.05409604097590395 0.010710262434016862
0002f0 72 22 46 91 60 30 a9 bf 68 95 6c f0 ad 32 a8 3f
       -0.049197213872564385 0.04726165351739092
000300 60 38 72 7f 00 28 92 3f 93 c9 ff 66 a3 ac a1 bf
       0.017730720308968606 -0.03452025062860566
000310 69 50 8f 01 34 2a b5 bf 5b 31 40 dc 8d e3 7c bf
       -0.08267521894532738 -0.00705295004082659
000320 cf cf ed c7 fb b3 94 3f 36 ea 83 b7 83 a1 64 3f
       0.020217832639403185 0.0025184223742347423
000330 b2 a5 61 9d ce 84 a1 bf e9 91 ee e4 9f 45 99 bf
       -0.03421636267814722 -0.024679659221549164
000340 34 ee c8 d8 eb 0c 97 3f 0f a0 73 3e 58 10 a7 bf
       0.022510228258609113 -0.04504657518720034
000350 2f 53 99 4b b0 3e 8f 3f ae 27 08 85 e2 fa 99 3f
       0.015256287867637745 0.025371112222309193
000360 9e 4e 02 df e2 33 d1 bf 71 39 53 60 03 f5 d3 3f
       -0.26879188326095427 0.311829418246723
000370 fc fe a1 c0 ba e5 aa bf 0e 68 bf a1 6d 7e b1 bf
       -0.05253394700502942 -0.06833539198797231
000380 57 75 29 22 58 b2 8e bf ea 7e 69 bb e0 4f b0 3f
       -0.01498860220197666 0.06371883941164538
000390 f5 2e 04 bc 24 5a bd bf e2 4e de 61 14 9b c0 3f
       -0.11465673055880272 0.12973265436868703
0003a0 e3 76 be 2e 0d 4c c4 3f f1 83 ae d9 5d 8f 85 bf
       0.1585709074251361 -0.010527356343859014
0003b0 97 4c cb 8a 7c 33 6c 3f 5d 60 a2 7f 89 30 94 3f
       0.003442519422927125 0.019716404357126616
0003c0 a7 c1 f3 8b 20 4d b2 bf d5 94 4c 96 f5 4b b3 3f
       -0.07148936669159998 0.07537779731190437
0003d0 4d 9b 4f 17 b5 74 c0 3f 5e 7e 02 c5 57 63 b4 3f
       0.12856162679892194 0.0796408515911877
0003e0 36 5b 8d 91 cd 3d b5 3f c1 60 c9 b5 24 ec d1 3f
       0.08297428897399758 0.28003804924584236
0003f0 6e 86 1d 08 68 81 3f bf a9 58 0c dd d2 f0 67 3f
       -0.0004807356818813173 0.002922450869287625
000400 d7 27 2f 78 4f ae 45 bf 1f 0d 1c 45 68 6e 5d 3f
       -0.0006616485628623225 0.0017963426839181019
000410 27 d8 ea 25 0c 4f 34 3f 0b 05 97 24 69 b3 59 3f
       0.0003098873766406184 0.0015686537538928704
000420 44 50 ab f8 32 2a 63 bf 6f 15 d3 56 59 ba 50 3f
       -0.0023394580397085047 0.001020991559287889
000430 90 fd ec dd f6 34 32 3f 77 43 5b 61 a8 23 60 bf
       0.00027781512283194757 -0.0019701279332839344
000440 0b c9 3f 16 e6 77 4c bf a7 4d d9 01 90 76 50 3f
       -0.0008687852355236126 0.0010048300095107739
000450 bd 3d 14 cc 02 e9 60 bf ae 5a 94 1d 36 d0 42 3f
       -0.0020642332680222684 0.0005741371379908899
000460 05 3c 5c 4d 17 df f7 3e 01 19 f7 98 ff 92 10 bf
       2.2765588105374424e-05 -6.322560351810018e-05
000470 cd 7a 09 3c 3e 38 63 bf 68 ba c6 96 02 2d 41 3f
       -0.002346154739185513 0.0005241644517378187
000480 a7 93 5f 0c c1 a8 bf bf 67 bb b3 e4 1b 19 b4 bf
       -0.12366873313983594 -0.07850813230082353
000490 07 b2 fe b1 63 99 c4 3f b3 f2 c2 62 3b 60 a5 3f
       0.16093107405812665 0.04174981670937452
0004a0 d6 94 62 41 76 10 b3 bf cc 34 3e 9d cf 23 aa bf
       -0.07446993919673459 -0.05105446619482165
0004b0 df 87 4e 8a f3 bf a9 bf c4 a9 09 a1 f3 46 b4 bf
       -0.05029259742083502 -0.07920763665757763
0004c0 da fb bc a3 ae bf b3 bf 08 31 f8 71 90 dc a0 bf
       -0.0771435880424031 -0.032932771599094635
0004d0 85 1a c1 03 60 13 bc 3f ca 7d 41 38 c5 b5 b5 bf
       0.10967063991220456 -0.08480484603341334
0004e0 c8 17 e5 41 d6 90 c2 bf 77 e6 d3 4a e3 8f aa bf
       -0.1450450727226651 -0.05187902725624565
0004f0 a4 db fb 9b ba 06 d2 3f 95 c9 3c 84 87 b1 91 bf
       0.2816607020644659 -0.017278783270009496
000500 6a bb 8f d7 a8 fc c8 bf 65 9b 38 6b 8f 59 bd 3f
       -0.19521055722676844 0.11464783065512803
000510 44 b3 74 a4 19 0b b6 3f
       0.08610687508617071
