hw1/model/weight_best.npy (npy, 1504 bytes, 1 tensors)

array f8 [172, 1]
0	0x3f81ae7a907ace0b	0.008633573087855081
1	0xbfa330272c93bfce	-0.037476753417535855
2	0xbf7b96316f040f61	-0.006735032177178941
3	0xbfab5b3be1ad282b	-0.05343043451155468
4	0xbf7c2df58ca1b87b	-0.00687976758682229
5	0x3f8ae63a697c924f	0.013134437889285836
6	0x3f1afb1e03e2b061	0.00010292406747919445
7	0xbf993cfde846699e	-0.02464672784990684
8	0x3fb870a5c892205f	0.0954688658404179
9	0xbf901629e5999af1	-0.015709547651932835
10	0x3fa26085428d280a	0.035892643331479304
11	0x3fb0d625fd4ca586	0.06576764520709419
12	0x3f78704a81b9e762	0.0059664640826840604
13	0x3fa94c6ca3bf15f3	0.04941119669778606
14	0x3fc302c26e596c68	0.14852171314382479
15	0x3fbd2dbc93c2ed00	0.11397913558441886
16	0x3fc3a1d239d53eab	0.15337589095951407
17	0x3fd4b411c176f593	0.32349056141887295
18	0x3faec814fa658d9e	0.060120254102709256
19	0xbf847a5856a53d39	-0.00999897970601059
20	0x3fbb108e99c60e3e	0.10572139028777713
21	0xbfd2147fc819238f	-0.2825011686405156
22	0x3fdb34af71cd5e27	0.42509065736291735
23	0xbfb7331d9ab87557	-0.09062371280056901
24	0xbfd8ae054bde9b0c	-0.38562137993942325
25	0x3fcde51ee6855cc9	0.23355470901399247
26	0x3ff20c77116b8b48	1.1280432396385596
27	0xbfd3e450efb5f6a1	-0.31081031235940243
28	0xbfad1242404cbfdd	-0.0567799285403223
29	0xbfd39247e55b7a79	-0.3058032741372823
30	0xbfadc24f238934b3	-0.05812308605946139
31	0x3fd83b4e35d86c58	0.37861972101535946
32	0xbfd1a8c89264c421	-0.27592672630550125
33	0xbfb69fc52cb52d98	-0.0883753999852871
34	0xbfbefc18edeb297e	-0.12103420074996582
35	0x3fd7b0299123e4c6	0.3701270978340968
36	0x3f7f7d10949892ca	0.007687630431551804
37	0x3f9c50ef96cc37e5	0.02765249593635834
38	0x3fbba4f835762197	0.10798598580561812
39	0xbfa5e020633d975a	-0.04272557460244171
40	0xbf81fd46a5454505	-0.008783866804750415
41	0xbfb900e295ba99bf	-0.09766975551119737
42	0x3fab2f06102837d4	0.05309313723783729
43	0x3fb9309864c5f428	0.0983977552441081
44	0xbfc4523dbdd741ca	-0.15875980157444608
45	0x3f94db48a636fe36	0.020367751259753507
46	0xbfa68b5397a9156d	-0.04403172708820589
47	0xbf916c327062a6ff	-0.017014301404436157
48	0xbfb004d0fadcace7	-0.0625734913307273
49	0xbf83ed8a85f173d3	-0.009730417454358353
50	0xbf61a512f2fada36	-0.002153908739127598
51	0xbfa8a133a7131724	-0.04810487188801307
52	0xbfb731307952dd0c	-0.09059431993488348
53	0x3fc4913b6d017e5b	0.1606821329360056
54	0x3f8e41ae4a4a7596	0.014773713724305176
55	0xbf9f0d4928ea283e	-0.030324118730767895
56	0x3f6e168d12c81d7f	0.003672862562101364
57	0x3f97e00f1deb3a6c	0.023315654946424777
58	0x3f9d1b87258eee49	0.0284253231691152
59	0xbee3aa68d029587c	-9.377318297126363e-06
60	0xbf96cca38c3a4121	-0.022265010293780144
61	0x3f7f55371fe750ad	0.007649627047119062
62	0x3fbdf04634811afa	0.1169475439247484
63	0x3f70ef1020dfb6ba	0.004134238244643812
64	0x3f7de0d85aabf28c	0.007294507154025919
65	0xbf6aa75bcdbd39e2	-0.003253630928077942
66	0xbf97e9ae22d547b8	-0.023352356792493117
67	0x3f6ff734b929f8aa	0.003902056670368988
68	0xbf9f452da6a3da53	-0.03053733186330938
69	0xbf982b54d1764238	-0.023602795872252197
70	0xbf8f92a9fda96645	-0.015416458181039103
71	0x3fba3b3a8e1d9864	0.10246625871295262
72	0x3f7e2b5bd47dd55f	0.0073655688391814625
73	0x3f740275ddd7d3b4	0.004885158935839341
74	0xbf94c1d93e12c724	-0.020270723737389265
75	0x3fa1d4c903004614	0.034826547256795376
76	0xbf8ca213cfc1d5c1	-0.013981013086076357
77	0xbf9c4689d9b51fcf	-0.027612832939922612
78	0x3fa12f31b098f01b	0.0335631874154105
79	0xbf7846bbe155c90a	-0.0059268321104915065
80	0x3fa3c22b3f391992	0.03859076639905647
81	0x3f670e0bbfea5e1f	0.002814314793180519
82	0xbf86b8d55de0678d	-0.011094729354272715
83	0x3fc034ec7c4f0943	0.12661510534059958
84	0xbfc5d1a5b5ae9892	-0.17046042796318212
85	0x3f92115574c65c78	0.017644248249407884
86	0x3fd6ff74c9da358e	0.3593418093886037
87	0xbfda07f0c9792ebf	-0.4067346541894316
88	0x3f8cb47b3e8b21fd	0.014016115995574724
89	0x3febe07c7901ad0b	0.8711531031998744
90	0x3f9df68077776b9c	0.029260642329841255
91	0xbf67ea5116893ff1	-0.0029193481207485596
92	0xbfad53b8f3fcb1b9	-0.05727937677724832
93	0x3f8577d38276ff68	0.010482456606837068
94	0xbfa8a1257754f848	-0.048104449097522706
95	0x3fa827c2bbc9e39e	0.04717834989873569
96	0x3f8dfa8c954918d0	0.01463804083426759
97	0xbfa0fd18960e9f16	-0.033180969541090885
98	0xbfb5dcffa7a4561c	-0.08540342181034827
99	0xbf6c6f27633c8ddc	-0.003470971039762223
100	0x3f8f47f3544c982e	0.01527395344744428
101	0x3f7232fe94409f40	0.004443163346912915
102	0xbfa17a1ef1f05882	-0.03413483336787328
103	0xbf99f4a03f2c00ee	-0.02534723649569142
104	0x3f97db2fd3f81a7e	0.02329706889397664
105	0xbfa4776f740c95ac	-0.039973719516903955
106	0x3f84c4038db3d50b	0.01013949180785769
107	0x3f96f33a4d62da9e	0.0224122152073628
108	0xbfd070203723a121	-0.2568436182468919
109	0x3fd3d2248a00b9ca	0.3097010944065032
110	0xbfa6ef4bf3f35307	-0.044794438866722124
111	0xbfb31c4312b493c4	-0.07464999396013555
112	0xbf9dd5f3f4a78233	-0.029136478240504537
113	0x3fac70d8bb7133fc	0.05554845131027972
114	0xbfb9e08f32d4d2b4	-0.10108275404929651
115	0x3fbb970461449584	0.10777308821396586
116	0x3fc558b8105a9c7a	0.16676998899967882
117	0xbf785b60b547c321	-0.0059465196286374875
118	0x3f1f3b9beb11faf2	0.000119143859381037
119	0x3f9093a63dbc1be5	0.016188237684243396
120	0xbfa9f07b05a87f39	-0.05066284603185384
121	0x3fb3cd2cd9b975a0	0.0773494750551067
122	0x3fc145d357b02905	0.1349434068836858
123	0x3fb76c698cdedf27	0.09149799050544215
124	0x3fb542ed63ec809e	0.08305247964426818
125	0x3fd1b929c8dc0d45	0.276926466133052
126	0xbf4523920b85acc1	-0.0006451094732659244
127	0x3f6966dc7a940b88	0.0031008058764440717
128	0xbf46ee2edeb40205	-0.0006997803551769827
129	0x3f5f4e8096b57ddd	0.0019108062504854452
130	0x3f341e4e4ab2b9e4	0.00030698214932103744
131	0x3f5a5f49f057d3a1	0.0016096326884256012
132	0xbf635c5816b6acfd	-0.002363369034090844
133	0x3f558f17e9723329	0.001315854407752679
134	0x3f36396909e62b89	0.00033911528034796156
135	0xbf5f103174228e47	-0.0018959505983183898
136	0xbf48a95db39f13a3	-0.0007526118781632129
137	0x3f50a7ba3b7b020a	0.0010165518450976374
138	0xbf610d74501e6113	-0.0020816108453339892
139	0x3f4344683b0a30eb	0.00058798875223112
140	0xbf0c3205900453da	-5.377845264057492e-05
141	0xbf0cb50ffc00cd6c	-5.475478201368952e-05
142	0xbf62dffce31141c4	-0.002304071349989752
143	0x3f37f4c0d850f8f1	0.0003655405819848043
144	0xbfbf1bc738554dbe	-0.12151761174509709
145	0xbfb33a1d4d341890	-0.07510550627566404
146	0x3fc500466f3b703f	0.16407089644678938
147	0x3f9ca71584910880	0.02798112508413242
148	0xbfb4cafcbe79c751	-0.08122234010968767
149	0xbfa6e966b996933e	-0.04474946036797299
150	0xbf9c831e97a2a3d0	-0.02784393120296952
151	0xbfba7c80598cd23c	-0.1034622400882847
152	0xbfb5539a8ba9da70	-0.08330694112542303
153	0xbfa1804cec3cabae	-0.03418197997810722
154	0x3fb86bcc40dcb954	0.09539486487913013
155	0xbfb34b9aaa075a08	-0.07537237788287865
156	0xbfc196ec0574c11f	-0.1374182726517654
157	0xbfa59e71f41b665d	-0.04222446541616585
158	0x3fd2087d0eaf0fed	0.28176809724777635
159	0xbf92808d159d7041	-0.01806850857188658
160	0xbfca0332a6713ec3	-0.20322259070461798
161	0x3fbd4e8760af535e	0.11447950468511922
162	0xbf432a2d997aaf5f	-0.0005848620084711701
163	0x3f2e05cdb5b49939	0.00022905479532049094
164	0x3f4a049824eba45c	0.0007940047160818297
165	0xbf4352fc874cf6bf	-0.0005897267388729962
166	0xbf337ef11db7050d	-0.00029748331663988285
167	0x3f550986b7435a55	0.001284009512394176
168	0xbf5f81d3979a87eb	-0.0019230429010481619
169	0x3f364aa6ee81ad19	0.00034014296989566675
170	0x3f510f60abfa1f19	0.0010412639675525025
171	0x3fb6d7d7cc9dd18f	0.08923100228805068
