impl_hw1/weight.npy (npy, 568 bytes, 1 tensors)

array f8 [55, 1]
0	0xbf8f5a80d4ce74c2	-0.015309339994752928
1	0x3f82366cd6bda11a	0.008892870238654416
2	0x3fba4722ce0d2221	0.10264794855641714
3	0xbfb7610bf9975897	-0.09132456630263373
4	0x3f884f5f6892b446	0.011870141390625599
5	0xbfb84d37f28bd103	-0.09492826148545323
6	0x3fb6ef4ce0d117b1	0.08958893288317317
7	0x3fae4f203b79a98e	0.05919743276611476
8	0xbfc810617aa420cf	-0.18799990166031086
9	0x3fa141135dd49516	0.033699612811952814
10	0xbfa3957723a71559	-0.03824970541203738
11	0xbf934b0b9e51c346	-0.018840962923096137
12	0xbfc307cd06a8d9b0	-0.14867556405233762
13	0xbfa71c7c2169a7de	-0.04513919742460336
14	0xbf96f205d52922d9	-0.022407618651672265
15	0xbf95009d44cceb37	-0.02051015598702152
16	0xbfc3cb6ce00ecbe9	-0.15464554729768956
17	0x3fb4732e207ae00c	0.07988251011818209
18	0xbf76d82450486073	-0.005577222681061855
19	0xbfa067b09ccdc9ee	-0.032041091099831095
20	0x3f8f91425036b2c6	0.015413778374602127
21	0x3fbd74f5a5c75213	0.1150659112675572
22	0x3fadd12df2e1c829	0.05823653783672029
23	0x3fa946cd4d0c8ef5	0.04936830106296767
24	0xbfa4f5d3178096ba	-0.04093799268620786
25	0x3fb617ac538ee7ea	0.08629872360225446
26	0x3fbf37e6db7953eb	0.1219467435669938
27	0x3f75b547fd58cfc2	0.005299836358563627
28	0x3f8445d32dccba7d	0.009898805461117316
29	0xbf9f4baf3942cc1e	-0.030562150831155425
30	0x3fa18536858988ae	0.03421945934384617
31	0xbf79a58968514fb0	-0.006261383769999115
32	0xbfa41bc0e48182e1	-0.03927424229983046
33	0x3fa0e2a62b0611a1	0.032979195358197495
34	0xbf6d7052aaaeb1ee	-0.003593598802998913
35	0x3fabec1e273f4c26	0.05453581074802853
36	0xbf9f0b800fcb07bd	-0.03031730743783333
37	0xbf8d545d258ac0c6	-0.014321067531767883
38	0x3fcc2bc361007c14	0.2200855468408639
39	0xbfce27c26b44724e	-0.23558836209930906
40	0xbfa173dae755cdbb	-0.034087029208332585
41	0x3fe021a8016eae3a	0.5041084316230304
42	0xbfe20e7fa4bdb91d	-0.5642698495483135
43	0x3f8438197946dbcf	0.009872626317571602
44	0x3fefb90a727db273	0.9913379894401956
45	0xbfd768f97513330d	-0.3657821315107846
46	0x3fd284a9162fc4ff	0.2893469540277493
47	0xbfb618b839d3b974	-0.0863146916560476
48	0xbfbb3b88140a6f3d	-0.10637712945247997
49	0xbf80dbb42008824f	-0.008231551387383322
50	0x3faf159187bde7f3	0.060711429424330186
51	0xbfc951460083ab50	-0.19779276871789842
52	0x3fbbc1c5e8accbac	0.10842549257794926
53	0x3fd1989173cdc140	0.2749370222945977
54	0x3fa606977733f32c	0.043019040394915414
