impl_hw1/weight.npy (npy, 856 bytes, 1 tensors)

array f8 [91, 1]
00000000: 8481 e614 b545 b1bf 6f02 1231 b77a 9ebf
00000010: cd6c c4ae cf4c 94bf 8782 812c 7f21 b0bf
00000020: 8c2d 275e c913 c53f 67ed 9793 54ad 913f
00000030: dbee 5869 d879 c93f def4 6afa 636d b43f
00000040: f538 1ebc 534e bf3f 0c6a dc69 1307 e03f
00000050: 0e4a 81fe 4d78 ca3f 8755 1931 be14 bbbf
00000060: 7f0b 7a04 4b16 dabf 376b c8a5 8354 d63f
00000070: ef97 a8f7 132e f23f 87d8 1389 d288 e93f
00000080: b2e0 3cd1 4536 e0bf eb11 2aa4 147e c6bf
00000090: f8b6 f37f 7844 d5bf 91ee f9c6 e39c a83f
000000a0: 4e52 6568 cfe6 933f b093 488e 1a2b bdbf
000000b0: 61a9 a6cb 7cf2 b23f 368e 02e8 7290 ab3f
000000c0: 22e9 486d 0e89 c5bf 8b5c edc6 e216 b6bf
000000d0: 86dd d1d6 7af0 553f 7eee 02d8 882a adbf
000000e0: 3983 1d9e c7cd c2bf 962f 001f 3e0c c43f
000000f0: a51b 1d9f f114 9c3f 4356 b956 ab85 903f
00000100: 22fc bd0d fefb 99bf d08b 10c5 323b a93f
00000110: c632 4e68 92b5 c13f 328e f5f5 30ed 90bf
00000120: 3365 26b5 0fe9 98bf 946f 2322 a217 9ebf
00000130: e5ee 3b0a c171 8abf 05c4 4a6d 4dd9 ba3f
00000140: fea1 3e91 55d9 743f b7f5 809c b706 94bf
00000150: 4ccc 15fe b22c 943f dd47 9434 b59f 2bbf
00000160: 00c0 8b1a bdc1 a53f fd28 f56c 8715 b0bf
00000170: c98c 3d80 b0b5 d83f 47ae 8fa3 31d7 dcbf
00000180: a85f ab52 f877 723f a215 3dd0 f800 ee3f
00000190: e2ea 83ab f386 a8bf 98d3 e377 0ea5 aa3f
000001a0: 9e21 e954 3bb7 8c3f 9d6e 05fe db3a 9ebf
000001b0: c5a2 803c 29d5 b6bf 2a79 975c 23f9 a7bf
000001c0: 8daf 3156 fa82 a23f d95f 8a5c b51a b4bf
000001d0: 160e 82f9 7104 973f 73d7 da21 26a5 a03f
000001e0: 8d42 3299 7049 a4bf 8659 e231 e8e7 b03f
000001f0: 813c 4a95 ffc7 bbbf ba19 1915 20d0 c03f
00000200: 6f10 3b06 1225 c23f 8034 25cd 3787 b43f
00000210: 17d2 7b31 8542 c83f 05f1 bf35 a98e b33f
00000220: 8864 38e8 964f 8f3f 6e24 3be6 67bd d73f
00000230: 6044 a9d7 245c 3f3f 55f7 aeca 53f1 5c3f
00000240: c3aa 1e86 baaf 65bf 7026 d146 e9ec 523f
00000250: 760b 24ea ee5b 3d3f 9d4b e1ca e509 443f
00000260: 7509 a584 61d0 303f 2170 c904 7ada 0abf
00000270: cb4e 08e4 7e16 65bf 04f2 f25c 2628 2a3f
00000280: 511e 76fa de41 aebf 244d aab1 5ded b6bf
00000290: 1c49 a79e 881e a4bf b14f e6e1 9e5c b9bf
000002a0: 4708 b9e1 9208 acbf a747 ed85 116c c1bf
000002b0: c547 2ada b8e1 d23f da41 88ae 0fc9 a5bf
000002c0: f6ce ecc6 e6be c8bf 58b0 2545 ecbb ba3f
000002d0: fdaf 9965 5ed4 c03f
-0.06746989975227363 -0.029764997835174997 -0.0198242617053495 -0.06301112019128584 0.16466633889499993 0.017262765415563843 0.19903092521587137 0.07979416717258256
0.12228892653203956 0.5008637492749712 0.2067964070034382 -0.10578526209550008 -0.4076106590002197 0.3489083403562065 1.1362495111620736 0.7979519536300054
-0.5066250883746959 -0.175722675474517 -0.33230412001908816 0.0480719738379466 0.019435158488095454 -0.11393896077841137 0.07401256534527569 0.05383643228676897
-0.16824512802288277 -0.0862867103254407 0.0013390731430983085 -0.05696513783319988 -0.14690489979241209 0.15662361634929017 0.027423644386796692 0.016134907882891857
-0.025375337208512268 0.04927977233480585 0.13835363476791523 -0.0165298128244002 -0.02432655852462524 -0.02938702901234043 -0.012912281155414937 0.10487827223074937
0.005090078589923495 -0.019556874205809396 0.019701763876082176 -0.00021075331668690594 0.042493733873811834 -0.06282850656603851 0.3860894443843788 -0.45063439343241324
0.004508943568644876 0.9376186434898737 -0.04790460079853688 0.05204053128719649 0.014021361855285627 -0.029521405581688687 -0.0891900799475805 -0.04682264809865651
0.03615553190397156 -0.07853253850259935 0.02247789464355606 0.03250998652713024 -0.0396228014952885 0.06603862016559078 -0.10852048296713869 0.1313514807718102
0.14175629905924178 0.08018826254301992 0.1895300380343918 0.07639558374643592 0.0152885236375815 0.37093541606424807 0.00047851466630272586 0.001766521289695307
-0.0026472704930332338 0.001155116852958573 0.00044798453213006713 0.0006115314515774299 0.0002565610963253453 -5.121884223477391e-05 -0.0025742033324237293 0.0001995608167585512
-0.059096305917645815 -0.0895594176056887 -0.03929545342147575 -0.09906952872398624 -0.05475291257290898 -0.13611048735998318 0.29502698235694097 -0.04254960065384568
-0.1933258506120336 0.10442997635044671 0.13148097954706364
