impl_hw1/weight.npy (npy, 1504 bytes, 1 tensors)

array f8 [172, 1]
000000 ea cd 7a 90 7a ae 81 3f d0 bf 93 2c 27 30 a3 bf
       0.008633573087855024 -0.03747675341753587
000010 48 0e 04 6f 31 96 7b bf 3d 28 ad e1 3b 5b ab bf
       -0.006735032177178697 -0.053430434511554804
000020 80 b8 a1 8c f5 2d 7c bf 7b 92 7c 69 3a e6 8a 3f
       -0.006879767586822294 0.013134437889285913
000030 0a bf e2 03 1e fb 1a 3f b1 69 46 e8 fd 3c 99 bf
       0.00010292406747924531 -0.024646727849906905
000040 55 20 92 c8 a5 70 b8 3f 11 9b 99 e5 29 16 90 bf
       0.09546886584041776 -0.015709547651932946
000050 0d 28 8d 42 85 60 a2 3f 7f a5 4c fd 25 d6 b0 3f
       0.035892643331479325 0.06576764520709409
000060 4c e7 b9 81 4a 70 78 3f e1 15 bf a3 6c 4c a9 3f
       0.005966464082684041 0.04941119669778594
000070 78 6c 59 6e c2 02 c3 3f e5 ec c2 93 bc 2d bd 3f
       0.14852171314382523 0.11397913558441848
000080 ba 3e d5 39 d2 a1 c3 3f 8e f5 76 c1 11 b4 d4 3f
       0.15337589095951448 0.32349056141887267
000090 b7 8d 65 fa 14 c8 ae 3f dd 3d a5 56 58 7a 84 bf
       0.06012025410270943 -0.009998979706010875
0000a0 30 0e c6 99 8e 10 bb 3f 8e 23 19 c8 7f 14 d2 bf
       0.10572139028777694 -0.28250116864051555
0000b0 2c 5e cd 71 af 34 db 3f 61 75 b8 9a 1d 33 b7 bf
       0.4250906573629176 -0.09062371280056915
0000c0 0f 9b de 4b 05 ae d8 bf d3 5c 85 e6 1e e5 cd 3f
       -0.3856213799394234 0.23355470901399275
0000d0 43 8b 6b 11 77 0c f2 3f a9 f6 b5 ef 50 e4 d3 bf
       1.1280432396385585 -0.3108103123594029
0000e0 ae bf 4c 40 42 12 ad bf 74 7a 5b e5 47 92 d3 bf
       -0.056779928540321975 -0.30580327413728203
0000f0 6a 34 89 23 4f c2 ad bf 60 6c d8 35 4e 3b d8 3f
       -0.058123086059460885 0.3786197210153599
000100 22 c4 64 92 c8 a8 d1 bf 8c 2d b5 2c c5 9f b6 bf
       -0.2759267263055013 -0.08837539998528693
000110 75 29 eb ed 18 fc be bf ca e4 23 91 29 b0 d7 3f
       -0.1210342007499657 0.37012709783409703
000120 2e 93 98 94 10 7d 7f 3f de 37 cc 96 ef 50 9c 3f
       0.0076876304315518906 0.027652495936358316
000130 95 21 76 35 f8 a4 bb 3f 73 97 3d 63 20 e0 a5 bf
       0.10798598580561809 -0.04272557460244188
000140 c2 44 45 a5 46 fd 81 bf c8 99 ba 95 e2 00 b9 bf
       -0.008783866804750299 -0.0976697555111975
000150 cb 37 28 10 06 2f ab 3f 2a f4 c5 64 98 30 b9 3f
       0.05309313723783723 0.09839775524410813
000160 d1 41 d7 bd 3d 52 c4 bf 33 fe 36 a6 48 db 94 3f
       -0.15875980157444627 0.020367751259753496
000170 62 15 a9 97 53 8b a6 bf 15 a7 62 70 32 6c 91 bf
       -0.04403172708820581 -0.017014301404436234
000180 e5 ac dc fa d0 04 b0 bf 0b 74 f1 85 8a ed 83 bf
       -0.06257349133072727 -0.00973041745435845
000190 a8 da fa f2 12 a5 61 bf 19 17 13 a7 33 a1 a8 bf
       -0.0021539087391276475 -0.048104871888013
0001a0 13 dd 52 79 30 31 b7 bf 58 7e 01 6d 3b 91 c4 3f
       -0.09059431993488358 0.16068213293600553
0001b0 8a 75 4a 4a ae 41 8e 3f 58 28 ea 28 49 0d 9f bf
       0.014773713724305155 -0.030324118730767985
0001c0 f0 1d c8 12 8d 16 6e 3f 76 3a eb 1d 0f e0 97 3f
       0.003672862562101413 0.02331565494642481
0001d0 3e ee 8e 25 87 1b 9d 3f f4 50 28 d0 68 aa e3 be
       0.02842532316911516 -9.377318297012074e-06
0001e0 32 41 3a 8c a3 cc 96 bf e0 50 e7 1f 37 55 7f 3f
       -0.022265010293780203 0.007649627047119106
0001f0 08 1b 81 34 46 f0 bd 3f b3 b6 df 20 10 ef 70 3f
       0.1169475439247486 0.004134238244643806
000200 99 f2 ab 5a d8 e0 7d 3f 1a 3a bd cd 5b a7 6a bf
       0.0072945071540259305 -0.0032536309280779665
000210 c2 47 d5 22 ae e9 97 bf bd f8 29 b9 34 f7 6f 3f
       -0.023352356792493152 0.003902056670368996
000220 53 da a3 a6 2d 45 9f bf 3b 42 76 d1 54 2b 98 bf
       -0.03053733186330938 -0.023602795872252207
000230 34 66 a9 fd a9 92 8f bf 64 98 1d 8e 3a 3b ba 3f
       -0.015416458181039074 0.10246625871295262
000240 60 d5 7d d4 5b 2b 7e 3f bb d3 d7 dd 75 02 74 3f
       0.007365568839181463 0.004885158935839347
000250 37 c7 12 3e d9 c1 94 bf 1b 46 00 03 c9 d4 a1 3f
       -0.02027072373738933 0.034826547256795425
000260 c2 d5 c1 cf 13 a2 8c bf df 1f b5 d9 89 46 9c bf
       -0.013981013086076358 -0.027612832939922668
000270 26 f0 98 b0 31 2f a1 3f ff c8 55 e1 bb 46 78 bf
       0.033563187415410575 -0.005926832110491497
000280 8d 19 39 3f 2b c2 a3 3f 4b 5d ea bf 0b 0e 67 3f
       0.03859076639905643 0.002814314793180427
000290 4b 67 e0 5d d5 b8 86 bf 4b 09 4f 7c ec 34 c0 3f
       -0.0110947293542726 0.1266151053405998
0002a0 9b 98 ae b5 a5 d1 c5 bf 62 5c c6 74 55 11 92 3f
       -0.17046042796318236 0.017644248249407808
0002b0 96 35 da c9 74 ff d6 3f c5 2e 79 c9 f0 07 da bf
       0.35934180938860416 -0.40673465418943194
0002c0 85 21 8b 3e 7b b4 8c 3f 0e ad 01 79 7c e0 eb 3f
       0.014016115995574516 0.8711531031998747
0002d0 9f 6b 77 77 80 f6 9d 3f a3 3f 89 16 51 ea 67 bf
       0.029260642329841265 -0.0029193481207485258
0002e0 b6 b1 fc f3 b8 53 ad bf 82 ff 76 82 d3 77 85 3f
       -0.0572793767772483 0.010482456606837113
0002f0 4e f8 54 77 25 a1 a8 bf a2 e3 c9 bb c2 27 a8 3f
       -0.04810444909752275 0.04717834989873572
000300 cc 18 49 95 8c fa 8d 3f 1a 9f 0e 96 18 fd a0 bf
       0.014638040834267584 -0.03318096954109091
000310 1c 56 a4 a7 ff dc b5 bf e3 8d 3c 63 27 6f 6c bf
       -0.08540342181034827 -0.003470971039762226
000320 40 98 4c 54 f3 47 8f 3f 6d 9f 40 94 fe 32 72 3f
       0.01527395344744431 0.004443163346912954
000330 a4 58 f0 f1 1e 7a a1 bf af 00 2c 3f a0 f4 99 bf
       -0.03413483336787351 -0.025347236495691202
000340 52 1a f8 d3 2f db 97 3f a2 95 0c 74 6f 77 a4 bf
       0.023297068893976487 -0.039973719516903886
000350 2f d5 b3 8d 03 c4 84 3f 9a da 62 4d 3a f3 96 3f
       0.010139491807857752 0.022412215207362786
000360 24 a1 23 37 20 70 d0 bf d3 b9 00 8a 24 d2 d3 3f
       -0.25684361824689206 0.3097010944065037
000370 1c 53 f3 f3 4b ef a6 bf cc 93 b4 12 43 1c b3 bf
       -0.04479443886672227 -0.07464999396013566
000380 06 82 a7 f4 f3 d5 9d bf ea 33 71 bb d8 70 ac 3f
       -0.02913647824050438 0.05554845131027959
000390 ac d2 d4 32 8f e0 b9 bf 81 95 44 61 04 97 bb 3f
       -0.1010827540492964 0.10777308821396582
0003a0 75 9c 5a 10 b8 58 c5 3f 02 c3 47 b5 60 5b 78 bf
       0.16676998899967868 -0.005946519628637461
0003b0 f5 fa 11 eb 9b 3b 1f 3f f1 1b bc 3d a6 93 90 3f
       0.00011914385938103704 0.016188237684243437
0003c0 20 7f a8 05 7b f0 a9 bf 7c 75 b9 d9 2c cd b3 3f
       -0.05066284603185367 0.0773494750551062
0003d0 0d 29 b0 57 d3 45 c1 3f 17 df de 8c 69 6c b7 3f
       0.13494340688368603 0.09149799050544193
0003e0 a0 80 ec 63 ed 42 b5 3f 47 0d dc c8 29 b9 d1 3f
       0.0830524796442682 0.2769264661330521
0003f0 c4 ac 85 0b 92 23 45 bf 83 0b 94 7a dc 66 69 3f
       -0.0006451094732659248 0.0031008058764440695
000400 08 02 b4 de 2e ee 46 bf d0 7d b5 96 80 4e 5f 3f
       -0.000699780355176983 0.0019108062504854424
000410 dc b9 b2 4a 4e 1e 34 3f a3 d3 57 f0 49 5f 5a 3f
       0.000306982149321037 0.0016096326884256016
000420 f9 ac b6 16 58 5c 63 bf 33 33 72 e9 17 8f 55 3f
       -0.0023633690340908423 0.0013158544077526812
000430 95 2b e6 09 69 39 36 3f 4d 8e 22 74 31 10 5f bf
       0.0003391152803479622 -0.0018959505983183911
000440 a6 13 9f b3 5d a9 48 bf 0f 02 7b 3b ba a7 50 3f
       -0.0007526118781632132 0.0010165518450976384
000450 0f 61 1e 50 74 0d 61 bf f3 30 0a 3b 68 44 43 3f
       -0.0020816108453339875 0.0005879887522311208
000460 5d 54 04 90 05 32 0c bf 96 cd 00 fc 0f b5 0c bf
       -5.377845264057581e-05 -5.4754782013689804e-05
000470 c9 41 11 e3 fc df 62 bf 07 f9 50 d8 c0 f4 37 3f
       -0.002304071349989754 0.0003655405819848055
000480 b5 4d 55 38 c7 1b bf bf 8c 18 34 4d 1d 3a b3 bf
       -0.12151761174509697 -0.07510550627566398
000490 3c 70 3b 6f 46 00 c5 3f 6a 08 91 84 15 a7 9c 3f
       0.1640708964467893 0.027981125084132343
0004a0 49 c7 79 be fc ca b4 bf 3f 93 96 b9 66 e9 a6 bf
       -0.08122234010968755 -0.044749460367973
0004b0 df a3 a2 97 1e 83 9c bf 3b d2 8c 59 80 7c ba bf
       -0.02784393120296957 -0.10346224008828468
0004c0 60 da a9 8b 9a 53 b5 bf b9 ab 3c ec 4c 80 a1 bf
       -0.0833069411254228 -0.0341819799781073
0004d0 56 b9 dc 40 cc 6b b8 3f 0d 5a 07 aa 9a 4b b3 bf
       0.09539486487913015 -0.07537237788287872
0004e0 1f c1 74 05 ec 96 c1 bf 4f 66 1b f4 71 9e a5 bf
       -0.1374182726517654 -0.04222446541616575
0004f0 ee 0f af 0e 7d 08 d2 3f 42 70 9d 15 8d 80 92 bf
       0.2817680972477764 -0.018068508571886584
000500 ce 3e 71 a6 32 03 ca bf 59 53 af 60 87 4e bd 3f
       -0.2032225907046183 0.11447950468511915
000510 54 af 7a 99 2d 2a 43 bf f6 98 b4 b5 cd 05 2e 3f
       -0.0005848620084711689 0.00022905479532048912
000520 52 a4 eb 24 98 04 4a 3f af f6 4c 87 fc 52 43 bf
       0.0007940047160818287 -0.0005897267388729944
000530 03 05 b7 1d f1 7e 33 bf 43 5a 43 b7 86 09 55 3f
       -0.0002974833166398823 0.001284009512394172
000540 e2 87 9a 97 d3 81 5f bf 3c ad 81 ee a6 4a 36 3f
       -0.00192304290104816 0.00034014296989566865
000550 0e 1f fa ab 60 0f 51 3f 8f d1 9d cc d7 d7 b6 3f
       0.0010412639675525 0.08923100228805068
